data.pth (torch, 5663 bytes, 6 tensors)

l1.weight f4 [8, 58]
0.08506935 0.010233266 -0.3388247 0.11122758 0.6106423 -0.10650388 -0.24151643 -0.22100917
0.01233502 0.69981444 -0.24215725 0.5333361 -0.23765427 -0.3132458 0.030116685 0.06012275
0.064771675 -0.23586231 -0.2150486 -0.6377507 0.37757307 0.11520677 0.25137815 0.023138503
-0.3892094 0.51717484 0.48634744 -0.5330232 0.45582432 0.19993354 -0.12401143 0.8188963
0.44008166 -0.4338109 0.55713654 -0.21098337 -0.582382 -0.33482236 -0.24864104 0.47149995
0.3315966 -0.16759023 -0.28309804 0.18461698 0.6329632 -0.0535255 0.0681499 0.5401188
0.21018218 0.5835564 0.66509795 0.6119391 0.60389286 -0.30165023 -0.43278778 -0.2703932
-0.24643466 -0.08179346 0.118896626 0.13126263 0.16979401 -0.17882644 0.039084043 0.2840394
0.34779328 0.015970385 0.58162117 0.599075 -0.16706878 0.1048033 0.39561403 0.026599757
-0.39903578 -0.39910755 -0.3989974 0.37542385 0.23412806 0.39993045 0.19980294 -0.47245845
0.29164648 0.42984524 0.023710096 -0.021915248 0.11890494 -0.03877359 -0.065404184 0.26848724
0.313937 0.63191956 0.2942529 -0.14511378 -0.061661176 -0.2177275 0.15787248 -0.15670845
0.25221837 -0.33098996 0.15746726 0.02192491 0.5346531 0.2551861 -0.15682937 0.37597948
-0.16048254 0.24822907 -0.23853625 -0.19872005 0.549605 -0.19505422 -0.24894597 0.029695686
-0.14587997 -0.09894193 0.48404926 0.6184804 0.099365935 0.28916076 0.4074914 -0.15017
0.27248314 0.19999692 -0.15112393 -0.22390923 0.6621324 0.62804466 -0.10256826 -0.28992015
0.23552603 -0.1650144 -0.42263943 -0.535234 -0.55142564 0.34152505 0.23043843 0.3739802
0.29423535 -0.52014464 0.04530139 -0.122852124 -0.10963249 0.15253206 0.28194204 -0.14293346
-0.29443094 0.38665137 -0.195772 0.8208298 0.4566366 -0.35096094 0.29722455 -0.047874868
-0.37244132 -0.22583957 0.38987574 -0.37109578 0.4128763 -0.15026319 -0.15769963 0.37794396
0.17315884 -0.06009262 0.27649626 0.458805 -0.616028 -0.6300191 0.7460355 0.21009389
0.3610223 0.4962209 -0.31876078 -0.23936127 -0.081187755 0.70911914 0.04302435 0.16603698
-0.07728021 0.145624 -0.11274616 0.0833439 0.37638718 0.22587067 0.81056917 0.22458965
0.23252591 0.058987796 0.0073662605 0.16595383 -0.50008583 -0.28480646 -0.27615196 0.19039299
0.07277375 0.012753331 0.649314 -0.3354597 0.16872774 0.53225905 0.19424108 -0.12878133
0.017847212 0.19570784 -0.056918986 0.6443304 0.41306514 0.014711015 -0.04344264 0.16404824
-0.2760466 0.27300024 0.50503963 0.23019668 0.16830581 -0.3093899 0.14132695 0.24115811
0.6001599 0.6485183 -0.19223063 0.38998017 0.6752731 -0.043708235 -0.5760408 -0.27628484
-0.19711035 -0.014177208 -0.41239804 0.7648138 0.38065472 0.25027856 0.37679654 0.0707485
0.34481907 -0.08772071 0.79620963 0.17076196 0.40709436 0.29452336 -0.11059518 -0.20048565
-0.5419437 -0.27708277 -0.14436038 -0.34963667 0.13947803 -0.11844302 0.5408958 0.5551814
0.7386642 0.36518264 0.15613395 0.56101197 -0.2295766 0.42873654 -0.3316915 -0.2479744
00000000: d738 ae3d 6ea9 273c 6e7a adbe 49cb e33d
00000010: 0e53 1c3f b51e dabd 1550 77be 3a50 62be
00000020: d318 4a3c 0a27 333f 12f8 77be b788 083f
00000030: a45b 73be c161 a0be 44b7 f63c 4643 763d
00000040: 03a7 843d e485 71be b335 5cbe a143 23bf
00000050: 4251 c13e 87f1 eb3d a3b4 803e f58c bd3c
00000060: 7446 c7be 9265 043f 8802 f93e 3574 08bf
00000070: ce61 e93e 61bb 4c3e b4f9 fdbd 30a3 513f
00000080: 6252 e13e 761c debe 80a0 0e3f 060c 58be
00000090: fd16 15bf d66d abbe c29b 7ebe 7168 f13e
000000a0: 08c7 a93e c69c 2bbe 3af2 90be 3c0c 3d3e
000000b0: e009 223f 8e3d 5bbd 2d92 8b3d 3a45 0a3f
000000c0: ff39 573e f463 153f dc43 2a3f 0aa8 1c3f
000000d0: b998 1a3f e671 9abe 5c96 ddbe fa70 8abe
000000e0: 5e59 7cbe 5483 a7bd 1380 f33d b669 063e
000000f0: 7bde 2d3e 471e 37be 9716 203d 9d6d 913e
00000100: f611 b23e 53d4 823c 20e5 143f fb5c 193f
00000110: 1414 2bbe 1da3 d63d ec8d ca3e bce7 d93c
00000120: 6b4e ccbe d357 ccbe 6349 ccbe 8e37 c03e
00000130: 44bf 6f3e afc3 cc3e 2499 4c3e 13e6 f1be
00000140: b052 953e ad14 dc3e ad3b c23c 9b87 b3bc
00000150: 6f84 f33d 0ed1 1ebd a1f2 85bd 2977 893e
00000160: 5abc a03e 7bc5 213f 51a8 963e b598 14be
00000170: 6e90 7cbd f5f3 5ebe 53a9 213e 2e78 20be
00000180: c422 813e 8477 a9be 193f 213e de9b b33c
00000190: 07df 083f c1a7 823e e197 20be 6280 c03e
000001a0: 8955 24be c32f 7e3e d942 74be 457d 4bbe
000001b0: eab2 0c3f 4bbc 47be b1eb 7ebe 5e44 f33c
000001c0: 8f61 15be 11a2 cabd 4ed5 f73e bb54 1e3f
000001d0: 5e80 cb3d e10c 943e b6a2 d03e 2ac6 19be
000001e0: e982 8b3e fecb 4c3e 3bc0 1abe 7648 65be
000001f0: 8281 293f 89c7 203f 4f0f d2bd 6a70 94be
00000200: bc2d 713e 89f9 28be 3264 d8be 1805 09bf
00000210: 3b2a 0dbf 5fdc ae3e 0df8 6b3e 557a bf3e
00000220: 04a6 963e 3328 05bf f38d 393d e599 fbbd
00000230: 0087 e0bd 5d31 1c3e b55a 903e 265d 12be
00000240: a7bf 96be 2bf7 c53e 7578 48be e721 523f
00000250: 46cc e93e 27b1 b3be d12d 983e 7018 44bd
00000260: a1b0 bebe 7d42 67be cb9d c73e 4400 bebe
00000270: 8664 d33e 98de 19be 037c 21be df81 c13e
00000280: 8d50 313e ae23 76bd eb90 8d3e 7de8 ea3e
00000290: 03b4 1dbf ef48 21bf 2ffc 3e3f da22 573e
000002a0: ead7 b83e aa10 fe3e 9d34 a3be 1f1b 75be
000002b0: c445 a6bd d588 353f 4d3a 303d 9905 2a3e
000002c0: 1645 9ebd 751e 153e 75e7 e6bd 35b0 aa3d
000002d0: d2b5 c03e a44a 673e 7681 4f3f d4fa 653e
000002e0: 461b 6e3e 309d 713d ac60 f13b cdef 293e
000002f0: a005 00bf 27d2 91be ca63 8dbe 61f6 423e
00000300: 670a 953d 59f3 503c 7139 263f 60c1 abbe
00000310: f7c6 2c3e 2142 083f 22e7 463e 41df 03be
00000320: 5134 923c a367 483e e223 69bd d6f2 243f
00000330: 467d d33e 7806 713c e9f0 31bd 43fc 273e
00000340: fb55 8dbe b0c6 8b3e 474a 013f aeb8 6b3e
00000350: 5c58 2c3e 5a68 9ebe 03b8 103e 27f2 763e
00000360: 14a4 193f 4c05 263f 1bd8 44be 7bab c73e
00000370: b3de 2c3f 6807 33bd 6977 13bf 3575 8dbe
00000380: 4cd7 49be 8547 68bc d625 d3be d6ca 433f
00000390: 2de5 c23e 8324 803e 7aeb c03e 97e4 903d
000003a0: 208c b03e eaa6 b3bd 65d4 4b3f 39dc 2e3e
000003b0: ac6e d03e c4cb 963e ba7f e2bd 1c4c 4dbe
000003c0: d3bc 0abf cbdd 8dbe 35d3 13be 9403 b3be
000003d0: 54d3 0e3e 4192 f2bd 2678 0a3f 5e20 0e3f
000003e0: 1919 3d3f 38f9 ba3e 94e1 1f3e 7b9e 0f3f
000003f0: 2116 6bbe 5b83 db3e 78d3 a9be 00ed 7dbe

l1.bias f4 [8]
0.8948454 0.3990857 0.584404 0.7151637 0.73192704 0.7731886 0.76771843 0.61959976
00000000: 9714 653f f654 cc3e 809b 153f f814 373f
00000010: 925f 3b3f b0ef 453f 3289 443f 179e 1e3f

l2.weight f4 [8, 8]
0.48988026 -1.293555 0.1504823 0.037933003 1.1685009 -0.9895309 0.96609455 0.6153433
1.5271062 1.329957 1.1520494 0.8031252 -0.27506116 -0.18469223 0.3463918 -0.8571683
0.29324493 -0.48521253 -0.9846381 0.9986162 -0.4179338 0.9836931 0.60075986 0.7896452
-1.3177232 0.93226993 0.18321075 1.1561389 -0.16033559 1.1655847 0.2571238 0.30857408
-0.77570045 0.24245013 0.51336914 0.5914184 0.6536373 0.57046664 -0.35905942 1.4545397
0.75007284 -0.7471212 -0.6690812 -0.7718776 1.2830203 0.44757444 1.2269361 1.0427297
-1.3209223 0.52878 -0.07189317 0.16840248 -0.018374609 0.631502 0.07368737 0.7284041
0.28069824 0.55892724 1.2842146 0.6570145 0.28046563 -0.80178565 -0.06409343 0.3686864
00000000: 96d1 fa3e 3693 a5bf 0818 1a3e a35f 1b3d
00000010: 7091 953f e651 7dbf f951 773f 2387 1d3f
00000020: 3778 c33f 083c aa3f 5b76 933f 9d99 4d3f
00000030: d1d4 8cbe f61f 3dbe 445a b13e 626f 5bbf
00000040: 3324 963e c76d f8be 3e11 7cbf 50a5 7f3f
00000050: 6bfb d5be 50d3 7b3f 66cb 193f 3026 4a3f
00000060: 27ab a8bf 3ea9 6e3f 999b 3b3e 5cfc 933f
00000070: 032f 24be e131 953f bba5 833e 6cfd 9d3e
00000080: 4e94 46bf d944 783e 296c 033f 3267 173f
00000090: c654 273f 1a0a 123f a3d6 b7be 5b2e ba3f
000000a0: c604 403f 5643 3fbf e848 2bbf c599 45bf
000000b0: 023a a43f 7a28 e53e 3e0c 9d3f 2b78 853f
000000c0: fb13 a9bf 205e 073f ba3c 93bd b371 2c3e
000000d0: 5986 96bc 1daa 213f 67e9 963d b178 3a3f
000000e0: aeb7 8f3e db15 0f3f 2561 a43f 1a32 283f
000000f0: 3199 8f3e d341 4dbf 6b43 83bd 77c4 bc3e

l2.bias f4 [8]
0.13449818 0.7988705 0.8730177 0.07335836 0.14232272 0.38264403 -0.5460736 -0.21168561
00000000: e4b9 093e c782 4c3f 177e 5f3f e83c 963d
00000010: 0cbd 113e ebe9 c33e 7bcb 0bbf 1dc4 58be

l3.weight f4 [8, 8]
-0.99349576 -0.043500993 0.007507766 0.7641928 -0.25006536 -1.4621673 0.38899726 -1.5901635
-1.0343643 0.7921296 -1.4253355 -1.3652159 -0.44379312 -0.94953096 -0.44977954 0.8465266
0.01841083 0.40647227 -0.17160021 0.16738097 0.30746907 -1.4508364 -1.3699852 0.16531764
0.13910516 -0.9409617 0.42601928 -0.76677066 0.20876244 0.7728848 -1.1504712 -1.1519785
-1.5084045 0.6986303 0.6703209 -1.0975168 -0.94363666 0.21529265 -0.3906757 -1.7004602
-1.2444254 -0.25233027 -1.19336 0.20532201 0.59773093 -0.36840534 0.7539382 -0.27595052
-1.1073598 -1.417044 0.53692603 0.2018712 0.06479423 0.06474598 0.4283345 -1.496837
0.5939062 0.10689338 -0.75183755 -1.2724874 -1.3285353 0.5142384 -0.9134323 0.20603581
00000000: bd55 7ebf 192e 32bd b503 f63b 24a2 433f
00000010: 9108 80be 4c28 bbbf a62a c73e 7a8a cbbf
00000020: 0d66 84bf 01c9 4a3f 6571 b6bf 65bf aebf
00000030: da38 e3be 7614 73bf 8149 e6be f8b5 583f
00000040: 4fd2 963c 221d d03e f7b7 2fbe eb65 2b3e
00000050: 966c 9d3e 02b5 b9bf ad5b afbf 0749 293e
00000060: 9571 0e3e dee2 70bf 331f da3e 154b 44bf
00000070: d2c5 553e c7db 453f a442 93bf 0874 93bf
00000080: 6613 c1bf 6fd9 323f 279a 2b3f 6e7b 8cbf
00000090: 2c92 71bf ad75 5c3e a506 c8be aea8 d9bf
000000a0: 5549 9fbf 6f31 81be 05c0 98bf ef3f 523e
000000b0: e504 193f a09f bcbe 1802 413f 6349 8dbe
000000c0: f7bd 8dbf b361 b5bf fc73 093f 53b7 4e3e
000000d0: d6b2 843d 8a99 843d a94e db3e 5b98 bfbf
000000e0: 3d0a 183f ebea da3d 6d78 40bf dee0 a2bf
000000f0: 720d aabf 21a5 033f b3d6 69bf 0dfb 523e

l3.bias f4 [8]
-0.22314861 -0.1288993 -0.072446086 0.19401063 0.17161268 -0.49449888 -0.0922535 -0.22475068
00000000: 1281 64be 2efe 03be 9d5e 94bd b9aa 463e
00000010: 3cbb 2f3e f52e fdbe 67ef bcbd 0b25 66be
